2019-03-18 13:12:32,023 [dqn_agent_wrapper] INFO: Import agent code from "agent_code/dqn_agent/callbacks.py"
2019-03-18 13:12:32,493 [dqn_agent_wrapper] INFO: Initialize agent code
2019-03-18 13:12:32,494 [dqn_agent_code] INFO: Mode: TRAINING
2019-03-18 13:12:32,494 [dqn_agent_code] INFO: DQN model created ...
2019-03-18 13:12:32,495 [dqn_agent_code] INFO: DQN model created ...
2019-03-18 13:12:32,520 [dqn_agent_code] INFO: DQN is set up.
2019-03-18 13:12:32,520 [dqn_agent_code] DEBUG: DQN(
  (conv1): Conv2d(3, 32, kernel_size=(2, 2), stride=(1, 1))
  (relu1): ReLU(inplace)
  (conv2): Conv2d(32, 64, kernel_size=(2, 2), stride=(2, 2))
  (relu2): ReLU(inplace)
  (conv3): Conv2d(64, 64, kernel_size=(2, 2), stride=(1, 1))
  (relu3): ReLU(inplace)
  (fc4): Linear(in_features=3136, out_features=512, bias=True)
  (relu4): ReLU(inplace)
  (fc5): Linear(in_features=512, out_features=5, bias=True)
)
2019-03-18 13:12:32,545 [dqn_agent_code] INFO: DQN is set up.
2019-03-18 13:12:32,545 [dqn_agent_code] DEBUG: DQN(
  (conv1): Conv2d(3, 32, kernel_size=(2, 2), stride=(1, 1))
  (relu1): ReLU(inplace)
  (conv2): Conv2d(32, 64, kernel_size=(2, 2), stride=(2, 2))
  (relu2): ReLU(inplace)
  (conv3): Conv2d(64, 64, kernel_size=(2, 2), stride=(1, 1))
  (relu3): ReLU(inplace)
  (fc4): Linear(in_features=3136, out_features=512, bias=True)
  (relu4): ReLU(inplace)
  (fc5): Linear(in_features=512, out_features=5, bias=True)
)
2019-03-18 13:12:32,580 [dqn_agent_code] INFO: Model initialized.
2019-03-18 13:12:32,598 [dqn_agent_code] INFO: Model initialized.
2019-03-18 13:12:32,598 [dqn_agent_code] DEBUG: Sucessfully completed setup code.
